var/checkpoint/22/pth/epoch_300.pth (torch, 10781 bytes, 24 tensors)

mg.submodule.submodule.submodule.submodule.submodule.pre_smoothers.0.weight f4 [1, 1, 3, 3]
0.062834606 0.24019529 0.43301165 -0.28500205 -0.12079093 -0.22859946 0.6138204 -0.09852331
0.24795046
00000000: 6eaf 803d c1f5 753e b4b3 dd3e caeb 91be
00000010: 3c61 f7bd fa15 6abe 5523 1d3f 97c6 c9bd
00000020: bae6 7d3e

mg.submodule.submodule.submodule.submodule.submodule.pre_smoothers.1.weight f4 [1, 1, 3, 3]
-0.50930804 -0.371781 -0.29444236 -0.1262556 0.41335645 0.30253166 -0.26582092 -0.15558007
-0.8131279
00000000: 0362 02bf 145a bebe 26c1 96be 2649 01be
00000010: 75a3 d33e 6ee5 9a3e ae19 88be 6250 1fbe
00000020: 2629 50bf

mg.submodule.submodule.submodule.submodule.submodule.post_smoothers.0.weight f4 [1, 1, 3, 3]
-0.98609453 0.14561579 -0.22620656 -0.11167988 0.07171479 -0.19246642 -0.43842056 -0.13813359
-0.73944265
00000000: b170 7cbf 4e1c 153e b1a2 67be 6cb8 e4bd
00000010: 34df 923d eb15 45be a978 e0be e472 0dbe
00000020: 1d4c 3dbf

mg.submodule.submodule.submodule.submodule.submodule.post_smoothers.1.weight f4 [1, 1, 3, 3]
0.54423106 -0.3804386 0.50274163 0.389319 0.4980174 0.025013087 0.5659628 0.164578
0.44164845
00000000: ba52 0b3f d9c8 c2be adb3 003f d254 c73e
00000010: 23fc fe3e 3fe8 cc3c f0e2 103f 2387 283e
00000020: bf1f e23e

mg.submodule.submodule.submodule.submodule.pre_smoothers.0.weight f4 [1, 1, 3, 3]
-0.36773962 -0.22661373 0.18022287 0.12752229 0.317373 -0.07535571 0.2985734 0.20865308
1.0794454
00000000: 5e48 bcbe 6e0d 68be 588c 383e 3495 023e
00000010: b77e a23e 1854 9abd 9dde 983e 27a9 553e
00000020: 442b 8a3f

mg.submodule.submodule.submodule.submodule.pre_smoothers.1.weight f4 [1, 1, 3, 3]
0.5710858 0.5680989 -0.10925644 0.63273346 0.86859316 0.4392411 0.10804377 0.5262595
0.29207638
00000000: ae32 123f ee6e 113f d7c1 dfbd d2fa 213f
00000010: 1f5c 5e3f 36e4 e03e 0d46 dd3d f1b8 063f
00000020: 098b 953e

mg.submodule.submodule.submodule.submodule.post_smoothers.0.weight f4 [1, 1, 3, 3]
0.56328595 0.405562 0.2725127 0.37273866 0.43660808 0.122011796 0.43745154 0.350473
0.14490446
00000000: 8233 103f d3a5 cf3e c986 8b3e 9ad7 be3e
00000010: 188b df3e 52e1 f93d a6f9 df3e 3271 b33e
00000020: d661 143e

mg.submodule.submodule.submodule.submodule.post_smoothers.1.weight f4 [1, 1, 3, 3]
0.88931817 0.037646495 0.38399127 -0.051143877 -0.23308039 0.19742957 0.48876566 0.113230854
0.28691867
00000000: 5baa 633f 3633 1a3d 819a c43e 3e7c 51bd
00000010: a0ac 6ebe fa2a 4a3e 7e3f fa3e 94e5 e73d
00000020: 01e7 923e

mg.submodule.submodule.submodule.pre_smoothers.0.weight f4 [1, 1, 3, 3]
-0.25157985 -0.24504495 -0.21346404 -0.0837946 0.5187239 -0.1499391 -0.33291373 0.10765997
-0.04973394
00000000: 13cf 80be 10ed 7abe 5196 5abe 819c abbd
00000010: 17cb 043f a389 19be ab73 aabe d57c dc3d
00000020: d1b5 4bbd

mg.submodule.submodule.submodule.pre_smoothers.1.weight f4 [1, 1, 3, 3]
0.05777133 0.06338036 0.08016399 0.15234067 0.1477919 0.28144056 0.09954512 0.20813733
0.15438336
00000000: a1a1 6c3d 90cd 813d 052d a43d 31ff 1b3e
00000010: c356 173e fa18 903e 50de cb3d f421 553e
00000020: ac16 1e3e

mg.submodule.submodule.submodule.post_smoothers.0.weight f4 [1, 1, 3, 3]
0.08661094 -0.10570669 0.086173825 0.08182485 0.044511408 0.11160396 0.14206989 -0.026711574
0.3172979
00000000: 1461 b13d c07c d8bd e77b b03d c993 a73d
00000010: 9851 363d 9e90 e43d c57a 113e 3bd2 dabc
00000020: df74 a23e

mg.submodule.submodule.submodule.post_smoothers.1.weight f4 [1, 1, 3, 3]
0.2729859 -0.08245518 -0.29657716 -0.45839325 0.46171364 -0.17559968 -0.050995216 -0.11723983
-0.105826065
00000000: cfc4 8b3e 43de a8bd f6d8 97be 85b2 eabe
00000010: bb65 ec3e 67d0 33be 5ce0 50bd 701b f0bd
00000020: 56bb d8bd

mg.submodule.submodule.pre_smoothers.0.weight f4 [1, 1, 3, 3]
0.19794412 0.11761063 0.72847927 0.09122003 0.40559658 0.44872808 0.33867058 0.24072316
-0.73121244
00000000: ddb1 4a3e d8dd f03d 9e7d 3a3f 91d1 ba3d
00000010: 5baa cf3e b0bf e53e 3b66 ad3e 2280 763e
00000020: bd30 3bbf

mg.submodule.submodule.pre_smoothers.1.weight f4 [1, 1, 3, 3]
0.4907292 0.19741072 -0.03416741 0.24924484 0.22932844 -0.047938954 0.101838194 0.10631007
0.3145469
00000000: dc40 fb3e 0926 4a3e 20f3 0bbd 0a3a 7f3e
00000010: 13d5 6a3e a35b 44bd 8b90 d03d 18b9 d93d
00000020: 4b0c a13e

mg.submodule.submodule.post_smoothers.0.weight f4 [1, 1, 3, 3]
-0.28654054 0.2793208 -0.22083029 -0.2803289 0.17676035 -0.09886927 -0.45858544 0.30639702
-0.26344335
00000000: 71b5 92be 2303 8f3e 5621 62be 4587 8fbe
00000010: aa00 353e f97b cabd b6cb eabe 12e0 9c3e
00000020: 0ce2 86be

mg.submodule.submodule.post_smoothers.1.weight f4 [1, 1, 3, 3]
-0.20419988 -0.28040802 -0.5630091 0.21850696 0.117653556 0.2529274 -0.10275691 -0.21492706
-0.19442618
00000000: c619 51be a491 8fbe 5d21 10bf 4ac0 5f3e
00000010: 59f4 f03d b37f 813e 3772 d2bd d715 5cbe
00000020: a817 47be

mg.submodule.pre_smoothers.0.weight f4 [1, 1, 3, 3]
-0.03509895 -0.07791765 0.29633048 -0.41445884 0.8384684 0.34176016 0.3188499 0.36732817
0.31245905
00000000: ebc3 0fbd 4a93 9fbd a1b8 973e f333 d4be
00000010: dda5 563f 30fb ae3e 4b40 a33e 7012 bc3e
00000020: a2fa 9f3e

mg.submodule.pre_smoothers.1.weight f4 [1, 1, 3, 3]
0.061467785 0.1496876 -0.14176054 0.13079241 0.74668866 0.37156194 -0.097788624 0.3454904
0.4082113
00000000: a5c5 7b3d b547 193e ad29 11be 72ee 053e
00000010: fd26 3f3f 5e3d be3e 6745 c8bd 1ee4 b03e
00000020: 1201 d13e

mg.submodule.post_smoothers.0.weight f4 [1, 1, 3, 3]
0.9439837 0.6541786 0.19232164 0.13338046 -0.25525993 -0.095169134 0.21742874 0.029625932
0.08181316
00000000: eaa8 713f 4078 273f f7ef 443e e394 083e
00000010: 6eb1 82be 09e8 c2bd a4a5 5e3e 15b2 f23c
00000020: a88d a73d

mg.submodule.post_smoothers.1.weight f4 [1, 1, 3, 3]
0.21638262 -0.1414251 -0.020769194 -0.5622087 -0.08341359 0.008307884 -0.35879415 -0.47254503
-0.028162502
00000000: 6893 5d3e bed1 10be 2824 aabc e9ec 0fbf
00000010: bfd4 aabd cb1d 083c deb3 b7be 6cf1 f1be
00000020: 0cb5 e6bc

mg.pre_smoothers.0.weight f4 [1, 1, 3, 3]
0.22498113 0.31939912 0.20021015 0.27441376 0.3583464 0.23634931 -0.053059578 0.09517736
0.08738944
00000000: 7461 663e 4888 a33e e403 4d3e f67f 8c3e
00000010: 2e79 b73e 8e05 723e 0055 59bd 59ec c23d
00000020: 3cf9 b23d

mg.pre_smoothers.1.weight f4 [1, 1, 3, 3]
0.21613847 0.36024913 0.63642454 0.21758269 -0.062337343 0.014017636 0.23376368 0.22518332
0.12489627
00000000: 6753 5d3e 9372 b83e b8ec 223f ffcd 5e3e
00000010: 7155 7fbd 3aaa 653c bf5f 6f3e 7596 663e
00000020: 9ec9 ff3d

mg.post_smoothers.0.weight f4 [1, 1, 3, 3]
-0.05062194 0.13822684 0.13002741 0.44925207 -0.49833348 0.2544644 -0.2497634 0.21517882
0.1937555
00000000: f458 4fbd 568b 0d3e e825 053e 5e04 e63e
00000010: 9125 ffbe 2849 823e fac1 7fbe d657 5c3e
00000020: d767 463e

mg.post_smoothers.1.weight f4 [1, 1, 3, 3]
-0.019840524 0.39824602 -0.24176489 0.4555606 -0.16053426 0.49878097 -0.40625608 0.26454297
0.07368465
00000000: 9888 a2bc e7e6 cb3e 3791 77be 3d3f e93e
00000010: 1863 24be 3860 ff3e cc00 d0be 2d72 873e
00000020: fae7 963d
